android/app/src/main/assets/handwriting.tflite (tflite, 441764 bytes, 14 tensors)

sequential_1/dense/BiasAdd/ReadVariableOp/resource f4 [128]
0	0x3c9801b6	0.018555503
1	0xbe35fcdf	-0.17772244
2	0x3bdd3d0b	0.0067516617
3	0x3df84688	0.12122828
4	0xbf398a6c	-0.7247684
5	0xbea056ad	-0.31316128
6	0x3d6362a1	0.05551398
7	0x3bf5adeb	0.0074975393
8	0x3e8a7e83	0.27049646
9	0xbea4610d	-0.32105294
10	0x3e7e1265	0.24811704
11	0xbed5ff95	-0.41796556
12	0xbdc1c4fe	-0.094614014
13	0x3cf94882	0.030430082
14	0xbe7387e8	-0.23782313
15	0x3cee1c6b	0.029066285
16	0xbd960d21	-0.07326723
17	0xbe27e7d0	-0.16397023
18	0x3d9f9b2c	0.077932686
19	0x3cc5d274	0.024148203
20	0xbeb9f495	-0.36319414
21	0xbc00123a	-0.007816846
22	0x3dfbc891	0.122941144
23	0xbef7b20e	-0.48378032
24	0xbe56c4e9	-0.20973553
25	0x3de1af62	0.1101978
26	0x3ddd30a3	0.10800292
27	0x3d4c9587	0.049947288
28	0xbe5977c3	-0.21237092
29	0xbeac2b31	-0.33626702
30	0xbd1b5b83	-0.03792907
31	0xbd7f55ac	-0.062337562
32	0x3c402f76	0.011730066
33	0x3e5659e4	0.20932728
34	0xbef6978c	-0.48162496
35	0x3ded48ce	0.11586152
36	0x3d8c9a00	0.06865311
37	0x3dff7958	0.12474316
38	0x3d9d8854	0.07692018
39	0x3e0eda42	0.13950446
40	0x3c920d0c	0.017828487
41	0x3e111048	0.14166367
42	0xbe81a05a	-0.2531765
43	0x3cb1f103	0.021721369
44	0xbe8beb3f	-0.27327916
45	0xbe32f75d	-0.17477174
46	0xbdf40d8a	-0.11916645
47	0xbe2c2d1d	-0.16814084
48	0xbe9189af	-0.28425357
49	0xbdf2e63f	-0.11860322
50	0xbe0ed4bc	-0.13948339
51	0x3de47d9c	0.111567706
52	0xbe719cb5	-0.23594935
53	0x3d9cb9bb	0.07652613
54	0xbe50515b	-0.20343535
55	0xbe752331	-0.23939206
56	0xbe56ba70	-0.20969558
57	0xbe4e1186	-0.20123872
58	0x3e0bf229	0.13666596
59	0xbd8fb56a	-0.07017024
60	0xbe7b7e02	-0.24559787
61	0xbd38663b	-0.04501937
62	0x3e23adde	0.15984294
63	0x3cac806a	0.021057326
64	0xbddca369	-0.107733555
65	0x3dbf9aff	0.09355735
66	0x3d359996	0.044335924
67	0x3d88b287	0.066746764
68	0x3dcb4bb8	0.099265516
69	0x3d8e5d13	0.06951346
70	0xbcfa97e3	-0.030590003
71	0x3e9656a4	0.29362977
72	0x3dabb3fd	0.083839394
73	0x3bac21f9	0.0052530733
74	0x3b8faec2	0.0043848464
75	0x3e2b5c42	0.16734412
76	0xbe30b8f0	-0.17258048
77	0x3daf86ea	0.08570655
78	0xbf125ed5	-0.5717595
79	0xbe003a72	-0.12522295
80	0xbe932d63	-0.28745565
81	0x3d238ba2	0.039928086
82	0xbdef6ea0	-0.11691022
83	0xbe8724b5	-0.26395193
84	0x3d1f068e	0.03882461
85	0xbe3bcae9	-0.18339123
86	0x3da951df	0.08267569
87	0xbf11af77	-0.56908363
88	0xbe215bcd	-0.15757675
89	0x3dbc11bf	0.09183072
90	0xbcf507b1	-0.029910894
91	0xbe256dec	-0.16155213
92	0xbdedb210	-0.11606228
93	0xbc323894	-0.010877747
94	0xbe04975c	-0.12948364
95	0x3e593dd1	0.21214987
96	0x3d821930	0.063524604
97	0xbd3900d3	-0.0451668
98	0x3d60ddcd	0.054899026
99	0x3e687344	0.2270022
100	0x3e1ab7e3	0.1510921
101	0x3e32b834	0.1745308
102	0xbe345efd	-0.1761436
103	0x3e27c1ae	0.16382477
104	0xbde47839	-0.11155743
105	0xbe6564a5	-0.22401674
106	0xbe2efcd7	-0.17088638
107	0xbe8b1de1	-0.27171233
108	0xbed8aad8	-0.42317843
109	0x3e52e08b	0.20593469
110	0x3d203dbd	0.03912138
111	0xbd7ffe30	-0.06249827
112	0xbd168ec2	-0.03675724
113	0xbdafec70	-0.08590019
114	0x3e402da9	0.18767418
115	0xbbeece5a	-0.0072877826
116	0x3c66d0fb	0.014087911
117	0xbe9efe82	-0.3105355
118	0xbe49197c	-0.19638628
119	0xbd20c156	-0.03924688
120	0x3e37487c	0.17898744
121	0xbdac41c5	-0.08410982
122	0xbcdcc288	-0.026948228
123	0xbdba0cd3	-0.09084477
124	0x3d203826	0.039116047
125	0xbe164fa5	-0.1467882
126	0x3da8c290	0.08240235
127	0xbe2758ce	-0.1634247

sequential_1/dense_1/BiasAdd/ReadVariableOp/resource f4 [47]
0	0x3dc64d0c	0.09682664
1	0x3fef39e9	1.8689548
2	0xbe8db82f	-0.27679583
3	0x3e9848b8	0.2974298
4	0xbef9209d	-0.48657694
5	0xbed2dc4e	-0.41183704
6	0xbf0db044	-0.55347085
7	0x3e9a0b95	0.3008696
8	0xbda51b28	-0.0806182
9	0xbf5012ed	-0.8127888
10	0x3ec03abc	0.3754481
11	0x3f11f0c1	0.57007986
12	0x3f3ea175	0.74465114
13	0x3efad28f	0.48988768
14	0xbd9a1930	-0.075243354
15	0xbc964540	-0.018343568
16	0xbe3da322	-0.18519261
17	0xbdb13931	-0.086534865
18	0x3fdc458c	1.7208724
19	0x3d4c66b2	0.049902625
20	0xba1216bd	-0.0005572846
21	0x3fc95542	1.5729144
22	0x3f221e43	0.63327426
23	0x3fcab85a	1.583751
24	0x3c3af96b	0.011412005
25	0xbd944207	-0.07239156
26	0xbf4bb8ed	-0.7957905
27	0xbda88950	-0.08229315
28	0x3ed78a64	0.4209777
29	0xbf3a07d4	-0.72668195
30	0x3f08f2a9	0.5349527
31	0xbe9f1cb2	-0.3107658
32	0xbf2deecd	-0.67942506
33	0xbf0011bd	-0.50027066
34	0xbf5cb277	-0.86209816
35	0x3eb7180e	0.3576054
36	0xbf932358	-1.1495161
37	0xbf57ce6f	-0.8429937
38	0xbf800f5d	-1.0004689
39	0x3f5fbf52	0.87401307
40	0x3d9a4458	0.07532567
41	0xbfb69660	-1.4264641
42	0xbf1774eb	-0.5916278
43	0xbf2159c1	-0.6302758
44	0xbf8b1893	-1.0866874
45	0xbf13cbb5	-0.5773271
46	0xbccd6149	-0.025070803

sequential_1/re_lu_1/Relu;sequential_1/batch_normalization_1/FusedBatchNormV3;sequential_1/conv2d_1/BiasAdd/ReadVariableOp/resource;sequential_1/conv2d_1/BiasAdd;sequential_1/conv2d_1/Conv2D f4 [16]
0	0x3e65c9f8	0.22440326
1	0xbf41524a	-0.7551619
2	0xbcf1d650	-0.029521137
3	0xbc2876d6	-0.010282239
4	0xbd397cd0	-0.045285046
5	0xbb39aa00	-0.0028330088
6	0x3d89fba8	0.06737453
7	0x40034fc3	2.0517433
8	0xbf1dcfb2	-0.6164504
9	0xbfed101c	-1.8520541
10	0x3fac7f6b	1.3476385
11	0x3f88497a	1.0647423
12	0x3dad39e0	0.084583044
13	0x3fa0e76b	1.2570623
14	0xbbfd9168	-0.007738281
15	0x3fecbc8f	1.8495044

sequential_1/re_lu_2/Relu;sequential_1/batch_normalization_2/FusedBatchNormV3;sequential_1/conv2d_2/BiasAdd/ReadVariableOp/resource;sequential_1/conv2d_2/BiasAdd;sequential_1/conv2d_2/Conv2D f4 [32]
0	0xbf3a7a1f	-0.7284259
1	0xbfbb852c	-1.4650016
2	0xc06be8e4	-3.6860895
3	0xbf23d6b5	-0.6399949
4	0xbfa189f7	-1.2620229
5	0xc020fb77	-2.5153482
6	0xbed531d1	-0.4163957
7	0x3f9db027	1.2319382
8	0xbf8f6c9e	-1.1205022
9	0xbf15e109	-0.585465
10	0x3db9d9f3	0.09074774
11	0xbf8fb5ea	-1.1227391
12	0x3fccae5d	1.5990711
13	0xbf382c66	-0.71942747
14	0x3ed6c428	0.4194653
15	0xbf81a93e	-1.0129774
16	0x3dc9dcb2	0.098565474
17	0xbff33fc0	-1.900383
18	0xbf9cdf1b	-1.2255586
19	0x3fd367e3	1.6516079
20	0xbeb23e13	-0.34812984
21	0xc01fa99c	-2.4947271
22	0x3f4111b9	0.7541767
23	0xbeead57e	-0.45866007
24	0x3f53cf24	0.82737947
25	0x3fd9fccc	1.7030272
26	0xbf8ea41e	-1.1143835
27	0x3f450298	0.7695708
28	0xbe37cbef	-0.17948888
29	0xbf4a9d56	-0.79146326
30	0x3f8b21d7	1.0869702
31	0x3f9a9b72	1.2078688

sequential_1/re_lu_3/Relu;sequential_1/batch_normalization_3/FusedBatchNormV3;sequential_1/conv2d_3/BiasAdd/ReadVariableOp/resource;sequential_1/conv2d_3/BiasAdd;sequential_1/conv2d_3/Conv2D f4 [48]
0	0x3f07e739	0.5308719
1	0xbf95fbba	-1.1717446
2	0xbf2bb518	-0.670732
3	0xbf316374	-0.6929238
4	0xbf612d97	-0.8796019
5	0x3f4e33e5	0.80547935
6	0xbded2868	-0.115799725
7	0xbf43c4bd	-0.76472074
8	0xbf375eb2	-0.7162887
9	0xbf2282cc	-0.6348083
10	0xbf0aad72	-0.54170907
11	0xbe20b2fe	-0.1569328
12	0x3ec11caf	0.37717196
13	0xbe975258	-0.2955501
14	0xbf81ad4b	-1.013101
15	0xbf418dd1	-0.7560702
16	0x3f7df735	0.99205333
17	0x3ec42d5c	0.38315856
18	0xbe731256	-0.23737463
19	0x3fce8c9d	1.6136662
20	0xbf6928c8	-0.9107785
21	0x3e28287f	0.16421698
22	0x3fe00799	1.7502319
23	0x3f69b103	0.91285723
24	0xbf5d8b73	-0.8654091
25	0x3faacfba	1.3344643
26	0x3de4fd34	0.11181107
27	0x3d145ee7	0.03622332
28	0x3ebf0659	0.3730953
29	0x3d45a11e	0.048249356
30	0x3ee02722	0.43779856
31	0xbf9ccd4d	-1.2250153
32	0xbf211826	-0.6292747
33	0x3f3db1f5	0.74099666
34	0x3f54b641	0.830906
35	0x3f1c7c36	0.6112703
36	0x3f311e7f	0.6918716
37	0xbee2d1ae	-0.44300598
38	0x3ff55d43	1.9169086
39	0x3faa7b29	1.3318835
40	0xbf6f56eb	-0.93492
41	0xbe1d23c2	-0.15345672
42	0x3eccdb5b	0.40011105
43	0x3d818b41	0.06325389
44	0xbe3eb36e	-0.18623134
45	0x3f014125	0.5049003
46	0x3e8972d8	0.2684543
47	0x3ddfadce	0.109218225

sequential_1/re_lu_4/Relu;sequential_1/batch_normalization_4/FusedBatchNormV3;sequential_1/conv2d_4/BiasAdd/ReadVariableOp/resource;sequential_1/conv2d_4/BiasAdd;sequential_1/conv2d_4/Conv2D f4 [64]
0	0xbe09e1c7	-0.13465033
1	0x3d8cae9d	0.06869242
2	0xbe327bce	-0.1743004
3	0xbf5bd0e2	-0.85865605
4	0xbf31c0cc	-0.6943481
5	0xbc07202f	-0.008247419
6	0xbfa73063	-1.3061641
7	0x3e5ab755	0.21358998
8	0xbf27895c	-0.6544397
9	0xbf62aef2	-0.88548195
10	0x3f9f8052	1.2461035
11	0xbf445a0e	-0.7669991
12	0x3cfa7863	0.030574983
13	0xbfac8b1f	-1.3479956
14	0xbf0ba790	-0.54552555
15	0xbf0635e7	-0.52426
16	0x3f1edfea	0.62060416
17	0xbfc6c673	-1.5529312
18	0x3de0b733	0.109724425
19	0xbf28ab69	-0.6588655
20	0xbf350805	-0.7071536
21	0xbf8f03e4	-1.1173062
22	0xbedfcc8e	-0.4371075
23	0x3ead0e37	0.33799908
24	0xbf3f6320	-0.7476063
25	0xbea95597	-0.33073112
26	0x3f89757e	1.0738981
27	0xbdb09b99	-0.08623428
28	0xbfab9f6d	-1.3408028
29	0xbedde8e1	-0.43341735
30	0xbf32f36c	-0.6990268
31	0x3eba91b2	0.36439282
32	0x3efb61a3	0.49097928
33	0xbf2788b0	-0.65442944
34	0x3f01731a	0.50566256
35	0x3f8d148e	1.1021898
36	0xbe991a68	-0.2990296
37	0x3e8bf3a5	0.27334324
38	0x3f228e57	0.63498443
39	0xbf68fad6	-0.91007745
40	0xbec54dda	-0.3853596
41	0xbf313e99	-0.6923614
42	0xbf10996a	-0.5648409
43	0xbf5825a9	-0.84432465
44	0x3dbf213a	0.09332509
45	0x3ccca5c0	0.02498138
46	0xbd623a92	-0.05523164
47	0xbe4a64ac	-0.19764966
48	0x3e74fce6	0.23924598
49	0xbf1b33fe	-0.6062621
50	0x3eb7ddd9	0.35911444
51	0xbf57dbc9	-0.8431974
52	0xbd84a126	-0.06476049
53	0x3f1f7ab3	0.622966
54	0xbebb8c7f	-0.36630628
55	0xbee55ac3	-0.44795808
56	0xbf6c7b5c	-0.9237573
57	0xbefb1665	-0.49040523
58	0xbf3be3db	-0.73394555
59	0xbf16b379	-0.58867604
60	0xbf20ef6f	-0.62865347
61	0xbe1284fe	-0.14308545
62	0x3ef2577f	0.4733238
63	0x3eca8360	0.39553356

sequential_1/re_lu_5/Relu;sequential_1/batch_normalization_5/FusedBatchNormV3;sequential_1/conv2d_5/BiasAdd/ReadVariableOp/resource;sequential_1/conv2d_5/BiasAdd;sequential_1/conv2d_5/Conv2D f4 [80]
0	0x3d923b4a	0.07140215
1	0x3d8c1181	0.06839276
2	0x3e0c9aa2	0.13730863
3	0xbf6f9ecd	-0.93601686
4	0x3e091cf6	0.13389954
5	0x3da61e21	0.081112154
6	0xbf4607f1	-0.7735587
7	0xbf3c7c67	-0.7362732
8	0xbed9c674	-0.4253422
9	0x3d35812a	0.044312634
10	0xbf9a0713	-1.2033409
11	0x3c5a3d8e	0.01332034
12	0xbd060fba	-0.03272984
13	0x3d190ce0	0.037365794
14	0xbf2f2a29	-0.68423706
15	0xbe04b96a	-0.12961355
16	0xbf0d6427	-0.55230945
17	0x3c9c4683	0.019076591
18	0xbdd8a3c4	-0.10578111
19	0xbf33f970	-0.70302486
20	0x3c97a40f	0.018510846
21	0x3d7b8e2b	0.06141488
22	0xbf2e69d6	-0.6813024
23	0xbf4c4828	-0.797976
24	0xbf415ac4	-0.7552912
25	0xbcdc6f3d	-0.026908511
26	0xbf225bb7	-0.63421196
27	0x3d586347	0.052829053
28	0x3db565d4	0.08857313
29	0x3dbca483	0.092110656
30	0x3d279255	0.040911037
31	0xbf2c88d7	-0.673963
32	0x3d850798	0.06495589
33	0xbdb45b45	-0.08806471
34	0xbd2d4410	-0.042301238
35	0xbf2d32f0	-0.6765585
36	0x3db13283	0.086522125
37	0x3da83398	0.08212966
38	0x3d83ad2f	0.064295165
39	0x3dec73d1	0.11545528
40	0xbf273ac8	-0.6532407
41	0xbd996f71	-0.07491959
42	0xbf5aff5d	-0.85545903
43	0x3e10a627	0.14125882
44	0xbeb3e443	-0.35135087
45	0x3dce13ba	0.10062356
46	0xbe89e28a	-0.26930648
47	0xbed5f256	-0.4178645
48	0xbf79454f	-0.9737138
49	0x3d00ceef	0.031447347
50	0x3ddd9080	0.10818577
51	0x3d3c5131	0.045975868
52	0x3d395fea	0.045257486
53	0xbc714000	-0.014724731
54	0xbca75412	-0.02042583
55	0x3dc4b578	0.09604925
56	0xbf954bce	-1.1663759
57	0x3db48d9f	0.088160746
58	0xbe807c9e	-0.25095075
59	0xbc8150ab	-0.015785536
60	0x3ca18b80	0.01971984
61	0xbef35263	-0.47523794
62	0xbc11773c	-0.008878525
63	0xbd2f0444	-0.042728677
64	0xbf4b8435	-0.79498607
65	0xbf56c56a	-0.8389498
66	0x3dec305f	0.115326636
67	0x3d1afcf1	0.03783888
68	0x3e2d13c2	0.16902068
69	0x3e0f69c5	0.14005192
70	0xbd231ba8	-0.039821297
71	0x3e4ce3af	0.2000873
72	0xbcff76f2	-0.031184647
73	0xbe1cabce	-0.15299913
74	0xbfa3882b	-1.277593
75	0xbe98cd40	-0.29844093
76	0xbf2e9363	-0.68193644
77	0xbf3b8535	-0.7325013
78	0xbcabc96f	-0.020970074
79	0x3ded3707	0.11582761

sequential_1/dense/MatMul f4 [128, 80]
0	0x3cfb2cd3	0.030661022
1	0x3c8f0f4f	0.017463354
2	0x3e2e7de6	0.17040214
3	0x3e6cf0ef	0.23138784
4	0x3d9166b3	0.070996664
5	0xbd869d76	-0.06573002
6	0xbe35f95a	-0.17770901
7	0x3ee061aa	0.43824512
8	0x3edea796	0.43487233
9	0xbf8b5cad	-1.0887657
10	0x3f16af11	0.5886088
11	0x3eb7ebc8	0.35922074
12	0xbe4e9b11	-0.2017634
13	0xbd8a8fab	-0.06765684
14	0x3f0e2f3f	0.5554084
15	0x3f75b063	0.9597227
16	0x3ca32818	0.01991658
17	0x3ed300d8	0.4121158
18	0x3f29744a	0.6619307
19	0x3f12a25d	0.57278997
20	0x3f1ead59	0.6198326
21	0x3f1feb7c	0.62468696
22	0x3f34747d	0.70490247
23	0xbe815e33	-0.2526718
24	0x3e0d7106	0.13812646
25	0xbfdbe84c	-1.7180266
26	0xbe5c9a04	-0.21543127
27	0xbf1fa65c	-0.6236322
28	0x3f2086a1	0.6270543
29	0xbe53c501	-0.2068062
30	0x3f106208	0.56399584
31	0xbf4b7a09	-0.79483086
32	0xbe850217	-0.25978157
33	0xbf1d086b	-0.6134097
34	0x3e96fc68	0.29489446
35	0x3d8862ac	0.06659445
36	0xbfe1cdce	-1.7640932
37	0x3e9a68cd	0.30158082
38	0xbfbdfe4b	-1.4843229
39	0x3f0cc922	0.54994404
40	0x3e91ea31	0.28498986
41	0xbe6d9ce7	-0.23204385
42	0xbda84e4a	-0.082180575
43	0x3ecc2d68	0.39878392
44	0x3ed1c03c	0.40966976
45	0xbcf1eaab	-0.029530844
46	0xbf4d12a2	-0.80106556
47	0xbe3dd500	-0.18538284
48	0xbe987195	-0.29774156
49	0x3ecfe636	0.40605325
50	0x3e73c72b	0.23806445
51	0x3f737465	0.9509948
52	0x3f23c436	0.6397127
53	0x3e6ddfc8	0.23229897
54	0xbf11890b	-0.56849736
55	0xbdc00128	-0.093752205
56	0x3f3dfd47	0.74214596
57	0xbe145d71	-0.1448877
58	0x3de8e0c2	0.11370994
59	0xbf765eff	-0.962387
60	0x3eaa0ecc	0.33214414
61	0x3ec91ef3	0.39281425
62	0x3e44b577	0.19209848
63	0xbfa452df	-1.283779
64	0xbcc391d6	-0.023873251
65	0x3e238e9f	0.15972374
66	0x3efb12e2	0.49037844
67	0xbe910e26	-0.28331107
68	0x3dbe68bd	0.09297321
69	0xbdae1c7f	-0.08501529
70	0x3aa0e9f5	0.0012276756
71	0xbdea0643	-0.114269756
72	0xbef48246	-0.4775564
73	0xbeea5faa	-0.4577611
74	0xbd90bb4d	-0.07066975
75	0xbeee088b	-0.46490893
76	0xbf880fac	-1.0629783
77	0x3ea130b8	0.31482482
78	0xbf797309	-0.97441155
79	0xc03703fe	-2.8596187
80	0xbd5e7fdc	-0.054321155
81	0x3c16e12b	0.009208958
82	0x3d18935b	0.037249904
83	0xbe790ed5	-0.24322064
84	0xbc99d505	-0.018778333
85	0x3db731d4	0.08945051
86	0x3d66264e	0.056188874
87	0x3c8c3b74	0.017118193
88	0xbe432bd5	-0.1905969
89	0xbc48eaff	-0.012263059
90	0xbe0c2577	-0.13686167
91	0xbe5b931b	-0.21442835
92	0x3d052545	0.032506246
93	0xbe62b516	-0.22139391
94	0xbcd83441	-0.026392104
95	0xbe133608	-0.1437608
96	0x3c3f8374	0.011689056
97	0xbc6e1979	-0.01453244
98	0xbd8f7a3b	-0.070057355
99	0xbe8882c3	-0.26662263
100	0xbc97c661	-0.018527212
101	0xbdde1d4c	-0.10845432
102	0xbd640b6d	-0.05567496
103	0x3d70b326	0.0587646
104	0xbe5308b3	-0.20608787
105	0xbe5729cb	-0.21012037
106	0x3ce420e3	0.027847713
107	0xbe7239ae	-0.23654816
108	0x3dbf7980	0.09349346
109	0xbdcd5bf2	-0.10027303
110	0xbda4ded1	-0.08050311
111	0xbdc16ce8	-0.094446
112	0xbdbfff26	-0.093748376
113	0xbbdb6e83	-0.0066965236
114	0x3d835134	0.06411973
115	0x3dc7cc84	0.09755805
116	0x3d18ce05	0.03730585
117	0x3d9d94fa	0.07694431
118	0xbe83a80a	-0.2571414
119	0xbe4e8cbc	-0.20170873
120	0x3c3446d5	0.011003216
121	0xbd2b8ef8	-0.041884392
122	0x3d319238	0.043352336
123	0x3d7d6db9	0.061872218
124	0xbde18dae	-0.110133514
125	0xbdd4e496	-0.10395162
126	0x3d935ad5	0.07195059
127	0xbdbef435	-0.093239225
128	0xbe44764a	-0.19185749
129	0xbb10e687	-0.0022110061
130	0x3c35b96c	0.011091571
131	0x3cb6b8be	0.022304889
132	0xbe28a810	-0.16470361
133	0xbe7b09f6	-0.24515519
134	0xba972663	-0.0011531826
135	0x3cf02ff4	0.02931974
136	0x3ce8e1f9	0.028428065
137	0xbe0c2c31	-0.13688733
138	0xbe67a63f	-0.22622012
139	0x3d3f9ba0	0.046779275
140	0x3af5b358	0.0018745465
141	0xbe51d454	-0.20491153
142	0x3d6a655c	0.05722557
143	0xbe81a719	-0.25322798
144	0xbd8149af	-0.06312882
145	0xbe3639ef	-0.17795537
146	0xbe4eb347	-0.20185576
147	0xbdc73da5	-0.09728555
148	0xbe4c92bd	-0.19977851
149	0xbe0f988f	-0.1402304
150	0xbdb8317c	-0.089938134
151	0xbcb6b097	-0.022301001
152	0x3cb7961b	0.022410443
153	0xbda65082	-0.081208244
154	0xba97b3f2	-0.0011574014
155	0xbe58c710	-0.21169686
156	0xbdd66bdf	-0.104697935
157	0xbe0048bf	-0.1252775
158	0x3d1c76c5	0.038199205
159	0x3e103b00	0.14085007
160	0x3e4cc4eb	0.19996993
161	0xbeb8f5b4	-0.36124957
162	0x3f67fcb7	0.9061999
163	0xbe30f64a	-0.17281452
164	0x3d6e88ef	0.05823606
165	0xbfb44d81	-1.4086152
166	0xbebdfba5	-0.37106052
167	0x3e24843e	0.16066071
168	0xbea7f7cc	-0.32806242
169	0x3e935934	0.28778994
170	0x3e7e74dc	0.24849266
171	0x3e90a72c	0.28252542
172	0x3ebc9a1e	0.36836332
173	0x3e8599be	0.26093858
174	0xbe75e1d8	-0.24011934
175	0x3f62f89c	0.886606
176	0xbf1b75d7	-0.60726684
177	0x3e8ff3a5	0.28115574
178	0xbf6a73a7	-0.9158272
179	0x3ef3ceea	0.476188
180	0x3e0f2d3d	0.13982101
181	0xbedf7077	-0.4364049
182	0x3d96f8d7	0.07371681
183	0x3e8971ac	0.26844537
184	0x3c242fc5	0.010021155
185	0x3f23fbc0	0.64056015
186	0xbe6695f2	-0.22518137
187	0x3f06c579	0.5264507
188	0xbe1219c2	-0.14267638
189	0xbfdc8dac	-1.7230735
190	0x3e0c18de	0.13681361
191	0xbf5f4a3c	-0.8722265
192	0x3d93a343	0.07208874
193	0x3e988458	0.2978847
194	0x3ee39f03	0.44457254
195	0x3ee17a90	0.4403882
196	0x3e2cdd15	0.16881211
197	0xbe819d0e	-0.25315136
198	0xbece5c87	-0.40304968
199	0x3c860cec	0.016363584
200	0x3e0cedd2	0.13762596
201	0x3f284fba	0.65746653
202	0xbec5be1c	-0.38621604
203	0x3f2751a0	0.65358925
204	0x3ed78cd1	0.42099622
205	0x3f443f76	0.76659334
206	0x3e370bbd	0.17875572
207	0xbe761e0f	-0.24034904
208	0x3d99c3ab	0.07508024
209	0xbf987c48	-1.1912928
210	0x3eedbe52	0.46434265
211	0xbccd6c65	-0.0250761
212	0xbfe56a71	-1.7923108
213	0x3f674fed	0.9035633
214	0x3efdfcdf	0.49606988
215	0x3f1e8db8	0.61934996
216	0x3f71c3b2	0.9443923
217	0xbe932277	-0.28737232
218	0xbee1aa46	-0.4407522
219	0x3e227c1f	0.15867661
220	0xbea16321	-0.31520942
221	0x3ed1b79a	0.4096039
222	0xbf5d4694	-0.8643582
223	0xbd8fa5c8	-0.07014042
224	0xbea8fd42	-0.3300572
225	0x3ef762f4	0.48317683
226	0xbce132c4	-0.027490027
227	0x3dbf0569	0.09327204
228	0x3e6e6648	0.23281205
229	0xc00cdafb	-2.2008655
230	0xbf4c724d	-0.7986191
231	0xbf11fae8	-0.5702348
232	0xbfce4d97	-1.6117429
233	0x3eef9792	0.46795326
234	0xbc7b265d	-0.015328971
235	0xbeee3683	-0.46525964
236	0xbe73e8d8	-0.23819292
237	0x3f02173c	0.508167
238	0xbf918c11	-1.137087
239	0xbe3b17a5	-0.18270738
240	0x3d196e69	0.03745881
241	0x3dbfddf7	0.09368508
242	0xbf7e571a	-0.99351656
243	0xbf79442d	-0.97369653
244	0x3e400c3c	0.18754667
245	0x3e9a8675	0.30180708
246	0x3e12eb58	0.14347589
247	0xbf2b8e0f	-0.6701364
248	0x3e2ed5d8	0.17073762
249	0x3e97537a	0.29555875
250	0x3f4e437e	0.80571735
251	0xbf3c3523	-0.7351858
252	0xbf6f0a14	-0.93374753
253	0xbf170239	-0.58987767
254	0x3ef0a123	0.46997938
255	0xbf5cc136	-0.86232316

sequential_1/dense_1/MatMul f4 [47, 128]
0	0xc070756f	-3.7571676
1	0x3df39ff6	0.118957445
2	0xbf9749b4	-1.1819367
3	0xc0ef520e	-7.4787664
4	0xc0869bf1	-4.206536
5	0xbd00def4	-0.031462625
6	0xbfd24417	-1.6427029
7	0xc04f33a0	-3.237526
8	0x3e4da4c3	0.20082383
9	0xbc26f4ff	-0.010190248
10	0xc014843b	-2.3205707
11	0xbd0d883f	-0.034553763
12	0xbfd087e0	-1.6291466
13	0xbeebb3df	-0.46035668
14	0xbe1b2138	-0.1514939
15	0xbfcd132b	-1.6021475
16	0xc0878a8f	-4.235664
17	0xc04cea3d	-3.2017968
18	0xbf9fa7c3	-1.2473072
19	0x3e4733f9	0.1945342
20	0xbd81a60c	-0.06330499
21	0xbf7cc99b	-0.98745126
22	0xbfdd94ec	-1.7311072
23	0xbedc67f8	-0.43048072
24	0xbdadfeb5	-0.08495847
25	0x3eb83b21	0.35982612
26	0xc0b65d60	-5.6988983
27	0xbcd3d218	-0.025857016
28	0xbd2aac18	-0.041668028
29	0xbe31b1ea	-0.17353025
30	0x3eaa3d6d	0.3324999
31	0xc05aa463	-3.4162834
32	0xbe7f3b2e	-0.24924919
33	0xc00697f4	-2.1030245
34	0xbe39571c	-0.18099636
35	0xbf9b91ee	-1.2153909
36	0xc0b80969	-5.7511487
37	0xc036bbcb	-2.855212
38	0x3e576b93	0.2103713
39	0xc011b408	-2.2766132
40	0xbfeab94e	-1.83378
41	0xc06c198c	-3.6890593
42	0xbdf6ae5b	-0.120449744
43	0xc014bbff	-2.3239744
44	0xbc5b3021	-0.013378174
45	0xbe0d04b5	-0.13771327
46	0x3e0955b9	0.13411607
47	0xbe29b7a1	-0.16573955
48	0xbddfe99f	-0.109332316
49	0xbd4337f0	-0.047660768
50	0xbeae2cd4	-0.34018576
51	0xbe07663d	-0.13222595
52	0xbc47df91	-0.0121992985
53	0xbfc9a8e6	-1.5754669
54	0xbe48d883	-0.19613843
55	0x3e097884	0.1342488
56	0xbadbd246	-0.001677104
57	0xbe279562	-0.16365579
58	0x3db40579	0.08790106
59	0xbf517c57	-0.8183035
60	0xbeb33610	-0.35002184
61	0xbfafe808	-1.3742685
62	0x3e862569	0.26200417
63	0xc039bcd7	-2.9021509
64	0xbf2f4734	-0.6846802
65	0xbffecd0f	-1.9906329
66	0xc011710a	-2.2725244
67	0xc0aa56ef	-5.323112
68	0xbf961c1d	-1.172733
69	0x3e50c5a7	0.20387898
70	0xc062526c	-3.5362806
71	0xbead783a	-0.33880788
72	0x3e808970	0.25104856
73	0xc0e4aa64	-7.1457996
74	0xbf2ab2a6	-0.66678846
75	0xbfe72c08	-1.8060312
76	0xbd59bf3a	-0.053160883
77	0xbf49f57d	-0.7889021
78	0xbd72a49f	-0.059239026
79	0xbe261176	-0.16217598
80	0xbe90fac6	-0.28316325
81	0xbeea33af	-0.45742556
82	0xbe59a403	-0.21253972
83	0xbd529452	-0.05141098
84	0xc0163585	-2.3470166
85	0xbd518d33	-0.05116005
86	0xc02c0d55	-2.6883137
87	0xbf28c0f3	-0.6591942
88	0xbcecfa9e	-0.028928097
89	0x3e9d94b5	0.30777517
90	0xbf642366	-0.89116514
91	0xbe27520b	-0.1633989
92	0x3d367bf5	0.04455181
93	0xbfaa6a58	-1.3313704
94	0x3e51b788	0.20480168
95	0xc04076aa	-3.0072427
96	0xbf82f445	-1.0230795
97	0xc0822a82	-4.067689
98	0xbc95565b	-0.018229654
99	0xbfe2725e	-1.7691152
100	0xbfc0a51e	-1.505039
101	0x3c23a23f	0.009987413
102	0xbbc66727	-0.006054777
103	0xc01c4187	-2.4414995
104	0x3c5c205a	0.013435448
105	0xbd2a0f8c	-0.041518733
106	0x3d7642fc	0.060122475
107	0x3c82ef1c	0.015983157
108	0xbe7d881e	-0.24758956
109	0xc001a9b5	-2.025983
110	0x3e6362e7	0.22205697
111	0x3e319b13	0.17344312
112	0xbf9c00c2	-1.2187731
113	0x3b8d7696	0.004317115
114	0xc00823e3	-2.1271904
115	0x3c8f8e4f	0.017523913
116	0x3dd31c3a	0.10308118
117	0xbc49b186	-0.012310391
118	0x3cffba09	0.031216638
119	0xc0326521	-2.7874224
120	0x3e9ebe3b	0.3100451
121	0xbf3c5ae6	-0.735762
122	0xc10d888e	-8.845839
123	0x3d8c8487	0.06861215
124	0x3eafc114	0.34326994
125	0xbdd82025	-0.10553006
126	0xbff15bfc	-1.8856196
127	0xbddd0143	-0.10791256
128	0xc0264f25	-2.5985806
129	0xbd8baade	-0.068197
130	0xc0333898	-2.8003292
131	0xc022ce0a	-2.5438256
132	0xc0a527bf	-5.161102
133	0xbd384948	-0.04499176
134	0xc06ffcde	-3.7498088
135	0xbfd2e3e9	-1.6475803
136	0xc008681d	-2.1313546
137	0xbdfa5c5b	-0.12224647
138	0xbfc75d4e	-1.5575349
139	0xbe0fee22	-0.14055684
140	0xc08cb4a3	-4.3970504
141	0xbfa4ea44	-1.2883992
142	0xbe6b8501	-0.22999956
143	0xc08739e9	-4.225819
144	0xc00f9c2d	-2.2439072
145	0x3ea7084d	0.3262352
146	0xbfdfdb1e	-1.7488744
147	0xc018b544	-2.3860636
148	0xbea128d6	-0.31476468
149	0xc043d6dd	-3.0599892
150	0xc013a0fe	-2.3067012
151	0x3c52d3dc	0.012867894
152	0x3d83dbfb	0.06438442
153	0xc0159b7a	-2.3376145
154	0xc0364a8d	-2.8483002
155	0xc0853713	-4.162973
156	0xbd53e403	-0.05173112
157	0xbe286b91	-0.16447283
158	0xc16ed1d8	-14.926231
159	0x3e6726a8	0.2257334
160	0xc019efba	-2.4052567
161	0xbfc41865	-1.5319945
162	0xbb9adacd	-0.00472579
163	0x3e97f5db	0.2967976
164	0xc0308f00	-2.758728
165	0xc0743613	-3.8158004
166	0xc0a662d0	-5.199562
167	0xbfcebc79	-1.6151267
168	0x3ec2a2c8	0.38014817
169	0xc0474037	-3.1132944
170	0x3d427860	0.04747808
171	0xc00a7585	-2.1634228
172	0xbdd4c6aa	-0.10389455
173	0xbe34cd75	-0.176565
174	0xbe18c02a	-0.14917055
175	0xbe4815cd	-0.19539566
176	0x3dc068fb	0.093950234
177	0x3d41198d	0.047143508
178	0xbe2b8904	-0.16751486
179	0xc0198561	-2.3987658
180	0x3c73c35f	0.014878123
181	0x3ecf661c	0.4050759
182	0xbe015e27	-0.12633573
183	0x3d82e01c	0.06390402
184	0xbe40f9cb	-0.18845288
185	0xbd865076	-0.065583155
186	0xc000d4ab	-2.0129802
187	0xbfafeec3	-1.3744739
188	0xbf1f019e	-0.6211184
189	0xbfd71059	-1.6801864
190	0xc0220460	-2.531517
191	0xc073e801	-3.8110354
192	0x3ea1b31c	0.31581962
193	0xc09c52fd	-4.8851304
194	0xbfbb0b11	-1.4612752
195	0xbf8010d7	-1.0005139
196	0xc0aaf915	-5.3429055
197	0xbeda9461	-0.4269133
198	0x3ea93324	0.3304683
199	0xbf83896d	-1.0276314
200	0xbfffaf8a	-1.9975445
201	0xbfd598af	-1.668722
202	0xc0918c16	-4.5483503
203	0xc05d7879	-3.460478
204	0x3d2cce30	0.042188823
205	0xbfe32de9	-1.7748386
206	0xbe25b028	-0.1618048
207	0xbe650e50	-0.22368741
208	0x3dbf55bd	0.09342525
209	0xc0ccc3c7	-6.3988986
210	0xbd91ffc0	-0.071288586
211	0xbe71e768	-0.2362343
212	0xbf6f5471	-0.9348822
213	0xbd651fe7	-0.055938628
214	0x3e6b3a3e	0.22971436
215	0xbef55128	-0.4791348
216	0xbe24d19f	-0.16095589
217	0xc0953160	-4.662277
218	0x3e0a3976	0.13498482
219	0xbe21dd9c	-0.15807194
220	0x3c7c1260	0.01538524
221	0xc0e2d196	-7.088084
222	0x3d28cf49	0.041213308
223	0xbfb931b1	-1.446829
224	0xc021fa6a	-2.530909
225	0xc006f73c	-2.10884
226	0x3e1c5cc3	0.15269761
227	0xc0212ba0	-2.5182877
228	0xbfd38342	-1.6524432
229	0xc0427235	-3.0382206
230	0xbefa0a54	-0.48836005
231	0xc0166f7d	-2.3505547
232	0xbdf80c54	-0.121117264
233	0xbe332584	-0.1749478
234	0xbc06afc0	-0.008220613
235	0x3e294e6d	0.16533823
236	0xbe235914	-0.1595195
237	0xc05e08ad	-3.4692795
238	0x3e7f9595	0.24959405
239	0xc05b8322	-3.4298787
240	0xc026fc76	-2.609159
241	0x3d9ff157	0.07809704
242	0xbe84b748	-0.25921082
243	0xc08c29d1	-4.3801045
244	0xbfdf3b73	-1.7440017
245	0x3d40dabd	0.047083605
246	0xbda33ee8	-0.07970983
247	0xbf9302dc	-1.1485248
248	0xc00fca86	-2.246736
249	0xc1343540	-11.2630005
250	0x3ed326c6	0.4124052
251	0xbe872d8d	-0.2640194
252	0xbfaacbb8	-1.334342
253	0xbe9e811c	-0.30957878
254	0xbffd4511	-1.9786702
255	0xbd95be9a	-0.07311745

sequential_1/conv2d_1/Conv2D f4 [16, 3, 3, 1]
0	0x3e3c0355	0.18360646
1	0xc075b35a	-3.8390718
2	0xc0575b9c	-3.3649664
3	0xc01f9cb0	-2.4939384
4	0xbf6e8696	-0.9317411
5	0x403ebc7f	2.980255
6	0x40269ce9	2.603327
7	0x403affef	2.921871
8	0x401b3620	2.4251785
9	0xbbe20da5	-0.006898599
10	0xbc385f53	-0.011253196
11	0x3cb2ec68	0.021841243
12	0xbb680d5b	-0.003540835
13	0x3dde6a08	0.108600676
14	0x3e0b704b	0.13617055
15	0x3e0ec293	0.13941412
16	0x3d9536ff	0.0728588
17	0x3e323a51	0.17405058
18	0x4017ffc4	2.3749857
19	0x400c3f83	2.1913764
20	0xbef851c7	-0.4849989
21	0x402ed085	2.731477
22	0xbe08fa2e	-0.13376686
23	0xc02b5dda	-2.6776032
24	0x3ecdbe76	0.40184373
25	0xc01b3d62	-2.4256215
26	0xbfdbbd07	-1.7167062
27	0x3f59e685	0.8511737
28	0x3f788a55	0.9708608
29	0x3feb953d	1.8404919
30	0x3f85f4de	1.0465353
31	0xbec1e758	-0.37871814
32	0xbeb47e21	-0.3525248
33	0xbfa729b1	-1.3059598
34	0xbfca051f	-1.5782813
35	0xbed34c27	-0.41269037
36	0x3f93aabd	1.153648
37	0x400d24ee	2.205379
38	0x400b1c5b	2.1736057
39	0xbf6766a6	-0.90391004
40	0x3e822e4a	0.2542594
41	0x3fbc7fe5	1.472653
42	0xc0534098	-3.3008175
43	0xc014ba11	-2.3238566
44	0x3db368d9	0.087602325
45	0x3e68f0ad	0.2274806
46	0xbe692dd1	-0.22771384
47	0x4012cf58	2.2939053
48	0xc0819bb5	-4.050257
49	0xbf842f97	-1.0327023
50	0x40921e8c	4.566229
51	0xc0743f17	-3.8163507
52	0xbe1e9c42	-0.15489295
53	0x402ea8d3	2.7290542
54	0xc069d8ca	-3.6538568
55	0xc04d2aa7	-3.2057283
56	0x407065f5	3.756223
57	0xc022b608	-2.5423603
58	0xc026c922	-2.6060262
59	0x40890bbd	4.282683
60	0xbf5d9c94	-0.86567044
61	0xc03af950	-2.9214668
62	0xbfe1b65c	-1.7633777
63	0xc0820b8e	-4.0639105
64	0xc01be576	-2.4358802
65	0x3fb6f80e	1.429445
66	0x3f372c3a	0.7155186
67	0xc09e5e95	-4.9490457
68	0xc04119fe	-3.0172114
69	0x4039549c	2.8957891
70	0x3eb6aaa2	0.35677058
71	0xc013dc25	-2.3103116
72	0x3f814a94	1.0100884
73	0xc040dbaa	-3.0134072
74	0xc072b041	-3.7920077
75	0x4090563b	4.510526
76	0xbe2f4b49	-0.17118563
77	0xc017ebdf	-2.3737714
78	0x3fc72300	1.5557556
79	0x40470796	3.109838
80	0xbddd8a6e	-0.10817419
81	0xbde8e72c	-0.113722175
82	0x3e1c4927	0.1526228
83	0x3e450e6c	0.19243783
84	0x3df0ce1f	0.117580645
85	0x3e51d7ec	0.20492524
86	0x3ea524f6	0.3225476
87	0x3e249301	0.16071703
88	0x3e1b0836	0.15139851
89	0x3e6f42cd	0.23365326
90	0xc01dfc0a	-2.4685082
91	0x40354896	2.8325553
92	0x4025e7f9	2.5922835
93	0xc0996e7a	-4.794736
94	0xbfbb34e7	-1.462552
95	0x4021e323	2.5294883
96	0xbf85edf0	-1.0463238
97	0xc08b21db	-4.3478827
98	0xc0b00580	-5.5006714
99	0x3fa07888	1.2536783
100	0x3fcdf615	1.6090723
101	0x3f95879a	1.1682007
102	0x3e2e1e9f	0.17003869
103	0x3f852402	1.0401614
104	0xbf96f869	-1.1794559
105	0xc06273a1	-3.5383074
106	0xc02b5a69	-2.6773932
107	0xc0199315	-2.3996022
108	0x3f136983	0.57582873
109	0xc02a6885	-2.6626294
110	0xc08fe583	-4.4967666
111	0x3f4078e3	0.7518446
112	0x409428db	4.6299872
113	0x40cb9c0d	6.362799
114	0xc0033301	-2.049988
115	0xc051865a	-3.2738252
116	0xc02122b2	-2.5177426
117	0x3fd32560	1.6495781
118	0xbf4b8e97	-0.7951445
119	0xbff6200e	-1.9228532
120	0x3fcf8a06	1.6213996
121	0xbed128d2	-0.40851456
122	0xc0014074	-2.019559
123	0x3f840b2a	1.0315907
124	0xc0103d5b	-2.2537448
125	0xbfe8a947	-1.8176659
126	0xc092f92f	-4.592918
127	0xbcec2436	-0.02882586
128	0x3fc5b936	1.5447147
129	0x3fe70c60	1.8050652
130	0x3f8fdf43	1.1240009
131	0xbf0e36eb	-0.5555255
132	0x40b505be	5.656951
133	0xc04f7291	-3.2413676
134	0xc06d0ee5	-3.704034
135	0x403c3628	2.9408054
136	0xbe3c16be	-0.1836805
137	0xc0afb611	-5.490975
138	0x3fd78775	1.6838213
139	0xc0de4ada	-6.946637
140	0x3eb5e24c	0.35524213
141	0xc0b64d63	-5.6969466
142	0xbfdda051	-1.731455
143	0x4044e619	3.076544

sequential_1/conv2d_2/Conv2D f4 [32, 3, 3, 16]
0	0x3da8bc1d	0.08239005
1	0xbc576f5b	-0.013149108
2	0xbd9d89e4	-0.07692316
3	0x3c041b66	0.008063173
4	0x3cc923e1	0.024553241
5	0x3c416e4f	0.011806085
6	0x3d34c164	0.044129744
7	0x3e286c65	0.16447599
8	0x3d200497	0.039066877
9	0xbd8c11a0	-0.06839299
10	0x3d9185bb	0.07105585
11	0x3d3cb2b3	0.04606886
12	0xbca30eb7	-0.019904478
13	0x3d83459d	0.06409762
14	0x3e1d8113	0.15381269
15	0x3ba292a4	0.0049613286
16	0x39f84791	0.00047355567
17	0xbcb34721	-0.021884503
18	0xbde4dca4	-0.11174896
19	0xbdbdfab6	-0.09276335
20	0xbcb1056b	-0.021609029
21	0xbcb12a30	-0.021626562
22	0x3ce33f1e	0.027740058
23	0x3e60e40f	0.21961997
24	0x3d156eff	0.036482807
25	0xbd1137ed	-0.035453726
26	0x3e24f628	0.16109526
27	0x3cfd6ce5	0.030935714
28	0xbd6c9330	-0.057757556
29	0x3c72dfea	0.014823893
30	0xbc03c1f9	-0.008041852
31	0xbbdec50b	-0.0067983917
32	0xbdd40e0f	-0.10354244
33	0xbd517d5f	-0.051144954
34	0xbc35d7e8	-0.011098839
35	0xbe341173	-0.17584781
36	0xbe13bb58	-0.14426935
37	0x3d3b97bd	0.045799006
38	0xbbf39163	-0.007433103
39	0x3e1201ce	0.14258501
40	0x3d93265f	0.07185053
41	0xbde47661	-0.111553915
42	0x3d4afbb4	0.04955645
43	0xbdc9bf92	-0.09850992
44	0xbdcfaecc	-0.10140762
45	0x3e254b52	0.16142014
46	0xbc6885f0	-0.014192089
47	0x3dd902a1	0.105962045
48	0xbd554602	-0.052068718
49	0xbbab1629	-0.0052211476
50	0xbd94c2fa	-0.07263751
51	0xbd2891fa	-0.04115484
52	0x3c341c21	0.010993035
53	0x3df31f22	0.118711725
54	0x3d9f735f	0.07785677
55	0x3dbf0335	0.093267836
56	0x3ca5be3d	0.020232314
57	0xbd3b41f0	-0.04571718
58	0x3d9dac59	0.07698888
59	0xbde893b8	-0.113563
60	0x3bc7ecc9	0.006101225
61	0x3df74584	0.12073806
62	0x3e09f94b	0.13474004
63	0xbd39fdac	-0.045407936
64	0xbdb37be0	-0.08763862
65	0xbbb400d3	-0.0054932623
66	0xbb9f9455	-0.0048699775
67	0xbd272f36	-0.04081651
68	0xbc71d164	-0.014759395
69	0x3da9c58e	0.08289634
70	0x3dd146a5	0.102185525
71	0x3e39e990	0.18155503
72	0x3d215e82	0.03939677
73	0xbd8d705b	-0.06906196
74	0x3d8a3359	0.06748075
75	0xbd63f58d	-0.055654097
76	0xbe411911	-0.18857218
77	0x3dc6d2c0	0.09708166
78	0x3e00c516	0.12575182
79	0xbd3ae4e3	-0.04562844
80	0xbd3134d4	-0.04326327
81	0xbcd1cc72	-0.025610182
82	0x3c8df19f	0.017327128
83	0xbe0840a6	-0.13305911
84	0xbe25822e	-0.16162941
85	0x3db83cdd	0.08995984
86	0x3d5aa718	0.05338201
87	0xbd7bfd32	-0.061520763
88	0xbd939098	-0.072053134
89	0xbe09684c	-0.13418692
90	0xbd8b30a6	-0.06796388
91	0xbded1617	-0.11576479
92	0xbd3d83bb	-0.046268206
93	0x3e03497c	0.12821001
94	0xbc96e0b9	-0.018417703
95	0x3e25d246	0.16193494
96	0xbdef324d	-0.11679516
97	0x3b032df8	0.0020016413
98	0x3d3e0772	0.04639382
99	0xbdc3ae1a	-0.095546916
100	0xbd4bf27d	-0.0497918
101	0x3daf50c4	0.08560327
102	0x3df9676f	0.121779315
103	0xbe2dd102	-0.16974261
104	0x3d69c647	0.057073858
105	0xbd38ea1a	-0.04514513
106	0xbd2b7b5e	-0.0418657
107	0xbe596b4c	-0.21232337
108	0xbe0e757b	-0.13912003
109	0x3d156aa3	0.03647865
110	0x3defd4de	0.11710523
111	0xbe63fe0d	-0.22264881
112	0xbde59e4b	-0.112118326
113	0xbcd20eee	-0.025641885
114	0x3d2523c3	0.04031731
115	0xbe023395	-0.1271499
116	0xbdb582a6	-0.0886281
117	0xbd09f232	-0.03367824
118	0x3d90b471	0.070656665
119	0xbe21bb2a	-0.15794054
120	0x3c99d471	0.018778058
121	0xbdd8ef06	-0.10592465
122	0xbdfadf4c	-0.12249622
123	0xbe068f05	-0.13140495
124	0xbe4ec88d	-0.20193692
125	0xbcf7ab1b	-0.030232957
126	0x3b933789	0.0044927043
127	0xbd93babd	-0.07213352
128	0x3d3741a1	0.044740323
129	0xb8f1b70c	-0.00011525871
130	0x3d00b116	0.031418882
131	0xbda975e8	-0.08274442
132	0xbe0edc0c	-0.13951129
133	0x3d2f1f15	0.04275425
134	0xbb7c295c	-0.00384768
135	0xbe1a11d2	-0.1504586
136	0xbdbfa91f	-0.09358429
137	0xbe1c41b7	-0.15259443
138	0xbd8d2f64	-0.06893805
139	0xbdbd4e99	-0.09243507
140	0xbdc83962	-0.0977657
141	0xbd42c219	-0.047548387
142	0x3cd5836f	0.026063649
143	0xbd2abf99	-0.041686628
144	0xbd27e5bd	-0.04099058
145	0xbb23ed48	-0.0025013257
146	0x3daf2983	0.085528396
147	0x3cce80cd	0.025207901
148	0xbbb84a97	-0.005624126
149	0xbd779eee	-0.0604543
150	0xbddb5da9	-0.10711224
151	0xbd366b68	-0.044536024
152	0xbb5109c5	-0.0031896692
153	0x3ccd2ef5	0.025046805
154	0xbd6c6384	-0.057712093
155	0xbc382de1	-0.011241407
156	0xbc6379be	-0.013884006
157	0x3c3a334b	0.011364768
158	0x3d301feb	0.04299919
159	0xbc34deca	-0.011039445
160	0xbd1c9aaf	-0.038233455
161	0xbbc197f1	-0.0059080054
162	0xbd257da2	-0.040403016
163	0xbc0ce8b9	-0.008600407
164	0xbc9786ec	-0.018496953
165	0xbc4cb484	-0.01249421
166	0xbe13f92a	-0.14450517
167	0xbd869b22	-0.06572558
168	0xbdd584d1	-0.10425723
169	0xbb3ab894	-0.0028491365
170	0xbc873d76	-0.016508799
171	0xbc9ff89f	-0.019527731
172	0xbd086e64	-0.0333084
173	0xbcc39115	-0.023872891
174	0x3c9954ea	0.018717248
175	0x3c22676e	0.009912355
176	0x3d4f50b2	0.050614066
177	0x3b0d2241	0.002153531
178	0xbbb4a2f9	-0.005512592
179	0xbca69eef	-0.020339457
180	0xbcdf95ff	-0.027293203
181	0x3c5df15b	0.013546313
182	0x3d6139cb	0.054986756
183	0x3c8d4cd4	0.017248549
184	0x3c106ba7	0.008814729
185	0xbd335a07	-0.04378703
186	0x3c8d3fae	0.017242279
187	0xbd8845d5	-0.066539444
188	0x3da397cb	0.079879366
189	0xbd10c829	-0.035347138
190	0x3db7f840	0.08982897
191	0x3cd3181c	0.025768332
192	0xbd7acbaa	-0.061229385
193	0xbc1b2fe9	-0.009471872
194	0x3dbb8d28	0.09157783
195	0xbcade87b	-0.02122902
196	0xbce5f035	-0.028068641
197	0x3cc55ed2	0.024093065
198	0xbd92b4d9	-0.071634
199	0xbcf008b4	-0.029301025
200	0xbbe105b1	-0.0068671335
201	0xbd0edb95	-0.03487738
202	0xbd616166	-0.055024527
203	0xbc5e4aec	-0.013567667
204	0xbdc22fbf	-0.09481763
205	0x3d81c2a8	0.06335956
206	0x3d597b5c	0.05309616
207	0x3cbe9cf0	0.023268193
208	0x3d2e3d92	0.042539187
209	0x3b8455b9	0.0040385392
210	0x3bf4310e	0.007452137
211	0xbd08d0a7	-0.03340211
212	0xbcba9a0f	-0.022778539
213	0x3e2fe4c2	0.17177108
214	0x3d1111f2	0.035417505
215	0xbc33c5fb	-0.010972495
216	0xbce40756	-0.02783553
217	0xbcbbd6ee	-0.022929635
218	0x3d2985e3	0.04138745
219	0xbd1b7318	-0.03795156
220	0x3c07ea49	0.008295604
221	0xbc80bb41	-0.01571429
222	0x3c8ea375	0.017411927
223	0x3da55be1	0.08074165
224	0x3d054d09	0.03254417
225	0x3aac424a	0.0013142314
226	0x3d971b74	0.07378283
227	0x3d1e5a89	0.03866056
228	0x3cb78081	0.022400143
229	0x3d3b706e	0.04576152
230	0x3de9eb77	0.114218645
231	0x3ccc56d1	0.024943741
232	0x3d2633af	0.040576633
233	0xbcf9c4e3	-0.03048939
234	0x3d8e221a	0.06940098
235	0x3db0f187	0.08639818
236	0x3d23fed4	0.040037945
237	0x3d8fb1ca	0.070163324
238	0x3d2601dc	0.040529117
239	0x3c884e8a	0.016639013
240	0x3a0ea279	0.00054410804
241	0xbab02b3b	-0.0013440618
242	0xbb90c48b	-0.004417961
243	0xbda5566c	-0.08073124
244	0xbc0153e2	-0.007893534
245	0x3d6975ec	0.056997225
246	0x3d4a0ad7	0.049326744
247	0xbc7b0f77	-0.015323511
248	0x3abe04a8	0.0014497237
249	0xbc92c587	-0.017916454
250	0x3afb1d4c	0.0019158511
251	0xbd0f53ff	-0.034992214
252	0x3c95124e	0.018197205
253	0x3cd37851	0.025814207
254	0xbbf82269	-0.0075724614
255	0x3d156c97	0.036480512

sequential_1/conv2d_3/Conv2D f4 [48, 3, 3, 32]
0	0x3b307c8e	0.002692971
1	0x3d0c7c8d	0.03429847
2	0x3cc7db89	0.024396675
3	0xbca9692c	-0.020680033
4	0x3a3880ea	0.00070382527
5	0xbd528e68	-0.05140534
6	0x3c2076c7	0.009793944
7	0xbd924a0b	-0.07143029
8	0xbcd48fc6	-0.025947463
9	0xbd0ea2a5	-0.03482308
10	0x3b8df0db	0.0043316907
11	0x3d2ab1fc	0.041673645
12	0xbd7339bb	-0.059381228
13	0xbbff06d4	-0.0077827964
14	0xbd607fb1	-0.054809276
15	0x3db9879f	0.09059071
16	0x3d500a35	0.050790984
17	0xbcdb5792	-0.026775155
18	0xbdc3c5a5	-0.09559182
19	0xbb1d1a90	-0.0023972131
20	0x3ceae573	0.028673863
21	0x3d3562b0	0.04428357
22	0x3bab53c1	0.00522849
23	0xbd6fbc18	-0.05852899
24	0xbd9edfd9	-0.07757539
25	0x3cb199c4	0.021679766
26	0xbd81aa0b	-0.06331261
27	0x3c3635ee	0.011121256
28	0x3d905892	0.070481434
29	0xbd0e2bc7	-0.034709718
30	0xbcf62186	-0.030045282
31	0xbd1055fe	-0.03523826
32	0x3d514ebf	0.05110049
33	0xbc13f05c	-0.009029474
34	0x3cf3f6c5	0.029780755
35	0xbd34a9c4	-0.044107214
36	0x3ba112ed	0.004915586
37	0x3d43f9ad	0.04784553
38	0xbc465733	-0.012105751
39	0xbc06a54c	-0.008218121
40	0xbc78a869	-0.015176871
41	0xbd9e157f	-0.07718944
42	0x3ce19166	0.027535152
43	0x3d3addc6	0.045621656
44	0xbe0b1199	-0.13580932
45	0x3d59362b	0.053030174
46	0xbd124969	-0.03571454
47	0x3dd59c17	0.104301624
48	0x3d7c62f0	0.06161779
49	0xbddc8423	-0.107673906
50	0xbe001f30	-0.12511897
51	0x3d3d5470	0.046223104
52	0xbc0eef22	-0.008724006
53	0x3c8fa6f6	0.017535668
54	0x3cb82914	0.022480525
55	0x3c59ebc6	0.013300842
56	0x3d857ec8	0.06518322
57	0xbbbfffa2	-0.005859331
58	0x3cf8f00b	0.030387899
59	0x3d1a4d05	0.037671108
60	0x3d105f38	0.035247058
61	0x3ba37e15	0.0049893954
62	0x3c6e7a12	0.014555471
63	0xbd8d2084	-0.068909675
64	0xbd4017b0	-0.04689759
65	0xbd24fc38	-0.040279597
66	0x3d0e53f1	0.03474802
67	0xbbd7b639	-0.006583002
68	0xbd14d81c	-0.03633891
69	0x3cd249ba	0.025669921
70	0xbc6c99af	-0.014440938
71	0xbd32d9a9	-0.04366461
72	0xbddded38	-0.108362615
73	0xbd969ce7	-0.073541455
74	0xbbaaa0f5	-0.005207176
75	0x3d9258e4	0.07145861
76	0xbcade2c6	-0.021226298
77	0x3ccd38c5	0.025051484
78	0xbd8f6ede	-0.07003568
79	0x3e156829	0.14590515
80	0x3d8ef2c6	0.06979899
81	0xbdc829f3	-0.09773626
82	0xbcf15731	-0.029460521
83	0xbc4aec1d	-0.012385395
84	0xbbdf9f3a	-0.006824401
85	0xbd31ca26	-0.043405674
86	0xbd8b12d0	-0.067906976
87	0x3bb50706	0.005524519
88	0xbb787e53	-0.0037917092
89	0xba519b28	-0.00079958374
90	0x3b725c19	0.0036981164
91	0x3d1a3418	0.037647337
92	0xbd2082b2	-0.03918714
93	0x3b3bf847	0.002868192
94	0xbb38ae81	-0.0028180184
95	0xbd4bbca9	-0.049740467
96	0x3c3d6402	0.011559488
97	0x3d2c54b9	0.042072985
98	0x3d22f0ef	0.039780553
99	0xbdbb26db	-0.091382705
100	0xbd97fe5b	-0.07421561
101	0xbd0dac40	-0.0345881
102	0x3c541ebe	0.012946783
103	0xbd3de4c9	-0.046360765
104	0x3d5ec567	0.054387476
105	0xbd509831	-0.05092639
106	0x3c917160	0.017754257
107	0xbd7b03ea	-0.06128303
108	0xbd9c2d07	-0.07625776
109	0xbd468873	-0.048469972
110	0xbc81d6c9	-0.015849488
111	0x3d047edc	0.032347545
112	0x3d8680f0	0.065675616
113	0xbda1c488	-0.078988135
114	0xbdbaab5a	-0.09114714
115	0x3c432cc4	0.011912528
116	0x3c6e12e6	0.014530873
117	0x3ce3f364	0.027826019
118	0x3ca31db6	0.019911628
119	0xbd3df840	-0.046379328
120	0x3cf6b43d	0.030115241
121	0x3cfd4260	0.03091544
122	0xbd9ed0d8	-0.077546775
123	0xbcf2bf44	-0.029632218
124	0xbcfca771	-0.030841561
125	0x3cf5a67a	0.029986609
126	0xbceccc49	-0.028906005
127	0xbd8c068a	-0.06837185
128	0x3d2f378c	0.042777583
129	0x3d582e6f	0.052778658
130	0x3c4d1a63	0.012518498
131	0xbdaa7b7c	-0.08324334
132	0xbb828aa0	-0.0039838105
133	0x3bff8efb	0.007799027
134	0xbc76f38b	-0.015072714
135	0x3b64c496	0.0034907213
136	0xbc8a08af	-0.016849844
137	0xbdb1bb9c	-0.08678362
138	0x3d55987c	0.052147374
139	0x3d4c54aa	0.04988543
140	0xbde914fa	-0.11380954
141	0x3cd619a8	0.02613528
142	0xbd3ea468	-0.04654351
143	0xbd2f1552	-0.042744942
144	0x3bb4ff9e	0.005523636
145	0xbdfe4d10	-0.12417042
146	0xbdfeef65	-0.12448005
147	0x3cecd398	0.02890949
148	0xbd3df098	-0.046372026
149	0xbc0077b4	-0.007841039
150	0x3d0355d7	0.032064285
151	0xbd4b3ee7	-0.049620535
152	0x3bccb25c	0.006246848
153	0xbd009837	-0.031395163
154	0x3befafa4	0.007314639
155	0xbc4b79a9	-0.012419143
156	0xbd694b44	-0.056956545
157	0x3ca42858	0.020038769
158	0x3d206da9	0.03916708
159	0xbdbb570a	-0.09147461
160	0x3ccf0cfe	0.02527475
161	0x3cab301b	0.020896962
162	0x3d052235	0.032503325
163	0x3b4ae60b	0.003095987
164	0xbc0006ae	-0.007814093
165	0x3c2d98b9	0.010595494
166	0xbc4000a0	-0.011718899
167	0x3cbbfccd	0.022947693
168	0xbd497b17	-0.049189653
169	0xbe0ffc18	-0.1406101
170	0x3ce8ee63	0.028433984
171	0x3d8eee90	0.06979096
172	0xbd346f72	-0.044051595
173	0xbd1383ee	-0.03601449
174	0xbd8650fd	-0.06558416
175	0xbbec4a78	-0.007211026
176	0x3d2b92ae	0.04188793
177	0xbd6a7eaf	-0.05724972
178	0xbaa9237f	-0.0012904255
179	0xbd48feef	-0.04907125
180	0xbdaee625	-0.0853999
181	0xbe2b4632	-0.16725996
182	0x3d6a9f78	0.057280988
183	0xbc275760	-0.010213703
184	0x3c33eb39	0.010981374
185	0xbc9ceba4	-0.019155331
186	0xbd805eb9	-0.06268067
187	0xbc7e7865	-0.015531634
188	0xbe01ffe6	-0.12695274
189	0x3c2c0818	0.010499977
190	0x3bbd0afa	0.005769131
191	0xbd29640e	-0.041355185
192	0x3c334d5b	0.010943736
193	0xbc7456c1	-0.014913262
194	0xb9077db1	-0.00012921427
195	0xbd8ed967	-0.0697506
196	0xbd6c4022	-0.05767835
197	0xbc96542e	-0.018350687
198	0x3d74c463	0.0597576
199	0xbd87a64a	-0.06623514
200	0xbad4f19a	-0.0016246319
201	0xbdb5ff55	-0.08886591
202	0x3d8085da	0.0627553
203	0xbc774337	-0.015091709
204	0xbd134d58	-0.035962433
205	0x3d4254ee	0.047444277
206	0x3ccc0e7d	0.024909252
207	0xbdaec768	-0.085341275
208	0xbd44deed	-0.04806416
209	0xbb75a2fc	-0.003748118
210	0xbd50a672	-0.050939985
211	0xbd0d1fd3	-0.034454178
212	0xbc19e806	-0.009393698
213	0x3d263a2a	0.040582813
214	0x3d62711a	0.055283643
215	0xbcbd4cd4	-0.023107924
216	0x3d13d3d2	0.03609068
217	0xbca24d47	-0.01981224
218	0xbde83373	-0.11337938
219	0xbdc09ca0	-0.09404874
220	0x3b527e95	0.0032118906
221	0x3b4faf6b	0.003169025
222	0xbc853ab5	-0.016263345
223	0xbbd3809c	-0.0064545404
224	0xbc17f43b	-0.009274538
225	0x3d6c8440	0.05774331
226	0xbdbff535	-0.093729414
227	0xbd154d0c	-0.03645043
228	0x3bbb8a9a	0.0057233097
229	0x3d3546eb	0.044257086
230	0xbc7eea13	-0.015558737
231	0x3d305948	0.043053895
232	0x3d1862e8	0.0372037
233	0xbdf10bb3	-0.117698096
234	0x3d268ef9	0.040663693
235	0xbd0e8f67	-0.034804728
236	0xbdf6da07	-0.12053304
237	0xbc25480d	-0.010087979
238	0xbce23278	-0.027611956
239	0xbd3623fc	-0.04446791
240	0x3d05a395	0.032626707
241	0xbc6c1a13	-0.014410513
242	0xbd3142fa	-0.043276764
243	0x3d1f0bca	0.038829602
244	0xbd44f309	-0.04808334
245	0xbcfec2aa	-0.031098682
246	0x3d02bfe2	0.031921275
247	0xbd21c235	-0.03949185
248	0xbd69a4b9	-0.057041857
249	0xbd52abb5	-0.051433284
250	0xbd4b1901	-0.049584392
251	0xbd67a043	-0.05654932
252	0xbd09d9ff	-0.033655163
253	0x3cca0882	0.02466226
254	0xbcc9a4d0	-0.024614722
255	0x3c2fd0b8	0.010730915

sequential_1/conv2d_4/Conv2D f4 [64, 3, 3, 48]
0	0x3c5f65eb	0.013635139
1	0xbcd6b5a4	-0.02620966
2	0x3cba5416	0.022745173
3	0x3bb9bfce	0.005668617
4	0x3db6dfc4	0.08929399
5	0x3ce966a5	0.028491328
6	0x3cb11a6c	0.021619044
7	0x3bbced2b	0.0057655773
8	0xbd88007e	-0.06640719
9	0xbb187633	-0.0023263812
10	0x3d75ce0a	0.060010947
11	0x3bb75c80	0.0055957437
12	0x3ca5cbb9	0.020238744
13	0xba5be402	-0.0008388163
14	0xbb27548e	-0.0025532576
15	0x3d3d658b	0.046239417
16	0x3d3b0f4c	0.045668885
17	0x3daa5ac9	0.08318097
18	0x3d8a5f88	0.067565024
19	0x3da0471e	0.078260645
20	0x3d1ccf65	0.038283724
21	0x3d9ff497	0.07810324
22	0x3d7c3c12	0.061580725
23	0xbcf14a94	-0.029454507
24	0x3dafff6b	0.08593639
25	0x3dafa0ef	0.085756175
26	0xbcf353a6	-0.029702973
27	0x3cee3fa5	0.029083082
28	0x3d1463f9	0.036228154
29	0xbb9dbca9	-0.00481375
30	0x3c78b111	0.015178935
31	0x3df8d724	0.1215041
32	0x3d8fa646	0.07014136
33	0x3cd5878f	0.026065616
34	0x3d0c2877	0.034218278
35	0x3d9b0a2d	0.075703
36	0x3d6196f9	0.05507562
37	0xbbf765b4	-0.0075499658
38	0x3d5c9c16	0.053859793
39	0x3d4a3e36	0.049375735
40	0xbd4ff745	-0.050772924
41	0x3d847144	0.06466916
42	0x3e0339bc	0.12814993
43	0x3d485e85	0.048918266
44	0x3d6dbbdb	0.05804048
45	0x3b8e1e5a	0.0043371143
46	0x3d24cd2c	0.04023473
47	0xbb153ad8	-0.002277067
48	0xbcb19be4	-0.02168078
49	0xbd82c810	-0.06385815
50	0xbccc30a8	-0.024925545
51	0xbd03e8bd	-0.03220438
52	0x3d960acc	0.07326278
53	0x3d9e7bc5	0.07738451
54	0xbb7b18e9	-0.0038314408
55	0xbdaf27a2	-0.08552481
56	0x3d1833f0	0.037158906
57	0x3cd0db9b	0.025495341
58	0x3c29005a	0.010315025
59	0xbd8e85d3	-0.06959119
60	0x3d369bbc	0.044582114
61	0x3c9ab287	0.018883957
62	0xbc256fb3	-0.010097432
63	0xbd346097	-0.044037428
64	0xb9d6640d	-0.00040891804
65	0x3ddbc81d	0.10731528
66	0xbcffd30d	-0.031228567
67	0x3dee83a1	0.116462
68	0xbca3f509	-0.020014303
69	0x3d3fb525	0.046803612
70	0x3d65883a	0.05603812
71	0x3deb2999	0.114825435
72	0x3c894f47	0.016761435
73	0xbca9ade2	-0.020712797
74	0xbd9d3468	-0.07676011
75	0x3cfb6a66	0.030690383
76	0xbcb76491	-0.022386821
77	0xbcad2296	-0.021134656
78	0xbd129c3b	-0.035793524
79	0x3c22540b	0.009907733
80	0x3d9dac6b	0.07698902
81	0x3d764fe6	0.06013479
82	0xbd6265ac	-0.055272743
83	0x3d249b06	0.040186904
84	0x3cb44ccf	0.022009281
85	0xbde87d29	-0.113519974
86	0x3dce78a8	0.10081607
87	0x3c426c9b	0.011866714
88	0xbd2821d5	-0.04104789
89	0x3d2951f8	0.041337937
90	0x3b4c4f5b	0.003117523
91	0xbc51cd25	-0.012805258
92	0xbd6ecaa2	-0.058298714
93	0x3d5df420	0.054187894
94	0x3cb76eab	0.022391638
95	0x3d80a4f4	0.06281462
96	0x3c4397ee	0.011938078
97	0x3cf861cf	0.030320076
98	0xbccab474	-0.02474425
99	0xbc30bcbc	-0.010787185
100	0x3bcc761f	0.006239667
101	0x3d7771d2	0.060411282
102	0x3d23ab49	0.039958272
103	0x3c69f878	0.014280431
104	0x3c6c1c88	0.014411099
105	0x3d099120	0.033585668
106	0x3d304439	0.043033812
107	0x3b1c5f28	0.0023860428
108	0x3d4418ee	0.047875337
109	0xbcb46ccd	-0.022024537
110	0x3b88ad70	0.004171066
111	0xbc6baa1b	-0.014383818
112	0xbce3ac30	-0.027792066
113	0xbd705280	-0.058672428
114	0xbc22b157	-0.009929976
115	0x3d2bbc62	0.041927703
116	0x3d66382b	0.05620591
117	0x3d96d797	0.07365339
118	0xbc8d61ce	-0.017258551
119	0x3d0b670e	0.034033827
120	0x3d40e56e	0.0470938
121	0x3d4dbebd	0.05023073
122	0x3d6e9240	0.058244944
123	0x3db38f1f	0.087675326
124	0xbc6131da	-0.013744796
125	0x3cee4d72	0.029089663
126	0x3ceefa17	0.029171987
127	0x3cfb1a9f	0.030652342
128	0x3ddd059e	0.10792087
129	0x3d782971	0.060586397
130	0x3db71358	0.089392364
131	0x3d5a7a95	0.05333956
132	0x3d540d86	0.05177071
133	0xbd8b466e	-0.06800543
134	0x3d129d17	0.035794344
135	0xbdc83e3e	-0.09777497
136	0x3d04fa31	0.032465164
137	0xbbf92297	-0.0076030004
138	0x3cf19905	0.02949191
139	0xbcb9c4fc	-0.022676937
140	0xbb87f90a	-0.004149561
141	0x3d0806c2	0.03320957
142	0xba4a9f7d	-0.0007729454
143	0x3da0937b	0.0784063
144	0x3c2ccad2	0.010546403
145	0x3d8eddd4	0.06975904
146	0x3c198385	0.009369736
147	0xbd153e17	-0.036436167
148	0xbbec62e4	-0.007213937
149	0xbd34a737	-0.04410478
150	0xbb9a3383	-0.0047058477
151	0x3a3e10f0	0.00072504487
152	0xbb23bd1d	-0.0024984546
153	0xbd5f12ef	-0.054461416
154	0x3d829f1b	0.06378003
155	0xbc438a61	-0.011934848
156	0x3b86498e	0.004098124
157	0xbd932b76	-0.07186024
158	0x3bf33dac	0.0074231233
159	0xbce4507c	-0.02787041
160	0xbd06fb4e	-0.032954507
161	0xbba21fdc	-0.0049476456
162	0xbc961039	-0.018318282
163	0x3cc8def5	0.024520377
164	0xbd524665	-0.051336665
165	0xbd980c15	-0.074241795
166	0x3adb74f7	0.0016743232
167	0x3c435f71	0.0119246105
168	0x3d55c6bf	0.052191492
169	0x3caa5b3d	0.020795459
170	0x3cac3174	0.021019675
171	0xbd10c782	-0.035346515
172	0xbd8896a9	-0.06669361
173	0xbd1259b7	-0.03573009
174	0x3c8e4bf0	0.017370194
175	0xbd08d8e1	-0.033409957
176	0xbd437f93	-0.047729086
177	0x3c8fd78d	0.017558837
178	0xbc1bd66b	-0.00951157
179	0xbc19cb84	-0.009386901
180	0x3cb01c0e	0.021497753
181	0xbca6c101	-0.020355703
182	0x3c218449	0.009858199
183	0xbbc5e34d	-0.0060390593
184	0xbc53fcf5	-0.012938728
185	0xbc6d148e	-0.014470233
186	0xbda077f5	-0.0783538
187	0xbc2f4965	-0.010698651
188	0x3cdb430b	0.026765367
189	0x3c6c535b	0.01442417
190	0x3c3ceac2	0.01153058
191	0xbe2f40be	-0.17114541
192	0xbd891c95	-0.06694905
193	0xbd88ed0f	-0.0668584
194	0x3cd02c34	0.025411703
195	0x3d4f95ab	0.050679844
196	0x3d5584f0	0.052128732
197	0xbac36ba3	-0.0014909398
198	0x3b885251	0.0041602035
199	0x3caf5865	0.021404454
200	0x3d435bbd	0.04769491
201	0x3cc2ef4e	0.02379575
202	0xbdf59ec7	-0.11993175
203	0xbd4cad9e	-0.04997026
204	0xbaef3335	-0.0018249514
205	0x3db0d322	0.086340204
206	0x3be94bde	0.00711964
207	0xbc587e49	-0.0132137025
208	0xbd898f75	-0.067168154
209	0xbd7d035c	-0.061770782
210	0x3be6b46d	0.0070405514
211	0x3c0e6ae6	0.008692479
212	0xbd491c3c	-0.049099192
213	0xbc96d87b	-0.018413773
214	0xbd6e3ae5	-0.058161635
215	0x3d820ed2	0.06350483
216	0x3c3c055c	0.011475887
217	0xbd1671bb	-0.036729556
218	0x3aaadcd6	0.0013035785
219	0xbe0e0b49	-0.13871492
220	0xbd67881e	-0.056526296
221	0xbdec89e5	-0.11549739
222	0xbd896159	-0.06708021
223	0xbd115385	-0.03548004
224	0xbde5bcae	-0.112176284
225	0x3c6c19ee	0.014410479
226	0xbd8710de	-0.06595014
227	0x3d743f83	0.059630882
228	0xbcff45bd	-0.031161183
229	0x3d24773a	0.040152766
230	0x3c843e51	0.016142996
231	0x3c669c55	0.014075358
232	0xbc0ccc98	-0.008593701
233	0x3ca6e4e8	0.020372823
234	0x3d0ffcaf	0.035153087
235	0xbc3a39ee	-0.011366351
236	0xbd75ea26	-0.060037754
237	0x3d1ba9eb	0.038003843
238	0x3d43b27d	0.04777764
239	0x3d35b07a	0.044357754
240	0xbddff3eb	-0.109351955
241	0x3d60667d	0.05478524
242	0x3bdaf5ec	0.006682148
243	0xbc0d44b1	-0.008622334
244	0x3d6d8a5f	0.05799329
245	0xbce4232b	-0.0278488
246	0xbc175e99	-0.009238862
247	0xbce9aecb	-0.02852573
248	0xbd525e98	-0.051359743
249	0xbbe494f1	-0.006975763
250	0xbc8a49e5	-0.016880939
251	0xbd520019	-0.051269624
252	0x3d8b62a6	0.06805925
253	0x3d8cbf96	0.068724796
254	0x3d61be53	0.055113148
255	0xbc387417	-0.011258147
